…
        "classifier.0": {
          "type": "Linear",
          "is_custom": false,
          "parameters": {
            "in_features": 768,
            "out_features": 256,
            "bias": true
          }
        },
        "classifier.4": {
          "type": "Linear",
          "is_custom": false,
          "parameters": {
            "in_features": 256,
            "out_features": 48,
            "bias": true
          }
        }
      },
      "full_structure": "GraphCLIP(\n  (visual_encoder): MultiResolutionEncoder(\n    (encoder): VisionTransformer(\n      (patch_embed): PatchEmbed(\n        (proj): Conv2d(3, 384, kernel_size=(16, 16), stride=(16, 16))\n        (norm): Identity()\n      )\n      (pos_drop): Dropout(p=0.0, inplace=False)\n      (patch_drop): Identity()\n      (norm_pre): Identity()\n      (blocks): Sequential(\n        (0): Block(\n          (norm1): LayerNorm((384,), eps=1e-06, elementwise_affine=True)\n          (attn): Attention(\n            (qkv): Linear(in_features=384, out_features=1152, bias=True)\n            (q_norm): Identity()\n            (k_norm): Identity()\n            (attn_drop): Dropout(p=0.0, inplace=False)\n            (norm): Identity()\n            (proj): Linear(in_features=384, out_features=384, bias=True)\n            (proj_drop): Dropout(p=0.0, inplace=False)\n          )\n          (ls1): Identity()\n          (drop_path1): Identity()\n          (norm2): LayerNorm((384,), eps=1e-06, elementwise_affine=True)\n          (mlp): Mlp(\n            (fc1): Linear(in_features=384, out_features=1536, bias=True)\n            (act): GELU(approximate='none')\n            (drop1): Dropout(p=0.0, inplace=False)\n            (norm): Identity()\n            (fc2): Linear(in_features=1536, out_features=384, bias=True)\n            (drop2): Dropout(p=0.0, inplace=False)\n          )\n          (ls2): Identity()\n          (drop_path2): Identity()\n        )\n        (1): Block(\n          (norm1): LayerNorm((384,), eps=1e-06, elementwise_affine=True)\n          (attn): Attention(\n            (qkv): Linear(in_features=384, out_features=1152, bias=True)\n            (q_norm): Identity()\n            (k_norm): Identity()\n            (attn_drop): Dropout(p=0.0, inplace=False)\n            (norm): Identity()\n            (proj): Linear(in_features=384, out_features=384, bias=True)\n            (proj_drop): Dropout(p=0.0, inplace=False)\n          )\n          (ls1): Identity()\n          (drop_path1): Identity()\n          (norm2): LayerNorm((384,), eps=1e-06, elementwise_affine=True)\n          (mlp): Mlp(\n            (fc1): Linear(in_features=384, out_features=1536, bias=True)\n            (act): GELU(approximate='none')\n            (drop1): Dropout(p=0.0, inplace=False)\n            (norm): Identity()\n            (fc2): Linear(in_features=1536, out_features=384, bias=True)\n            (drop2): Dropout(p=0.0, inplace=False)\n          )\n          (ls2): Identity()\n          (drop_path2): Identity()\n        )\n        (2): Block(\n          (norm1): LayerNorm((384,), eps=1e-06, elementwise_affine=True)\n          (attn): Attention(\n            (qkv): Linear(in_features=384, out_features=1152, bias=True)\n            (q_norm): Identity()\n            (k_norm): Identity()\n            (attn_drop): Dropout(p=0.0, inplace=False)\n            (norm): Identity()\n            (proj): Linear(in_features=384, out_features=384, bias=True)\n            (proj_drop): Dropout(p=0.0, inplace=False)\n          )\n          (ls1): Identity()\n          (drop_path1): Identity()\n          (norm2): LayerNorm((384,), eps=1e-06, elementwise_affine=True)\n          (mlp): Mlp(\n            (fc1): Linear(in_features=384, out_features=1536, bias=True)\n            (act): GELU(approximate='none')\n            (drop1): Dropout(p=0.0, inplace=False)\n            (norm): Identity()\n            (fc2): Linear(in_features=1536, out_features=384, bias=True)\n            (drop2): Dropout(p=0.0, inplace=False)\n          )\n          (ls2): Identity()\n          (drop_path2): Identity()\n        )\n        (3): Block(\n          (norm1): LayerNorm((384,), eps=1e-06, elementwise_affine=True)\n          (attn): Attention(\n            (qkv): Linear(in_features=384, out_features=1152, bias=True)\n            (q_norm): Identity()\n            (k_norm): Identity()\n            (attn_drop): Dropout(p=0.0, inplace=False)\n            (norm): Identity()\n            (proj): Linear(in_features=384, out_features=384, bias=True)\n            (proj_drop): Dropout(p=0.0, inplace=False)\n          )\n          (ls1): Identity()\n          (drop_path1): Identity()\n          (norm2): LayerNorm((384,), eps=1e-06, elementwise_affine=True)\n          (mlp): Mlp(\n            (fc1): Linear(in_features=384, out_features=1536, bias=True)\n            (act): GELU(approximate='none')\n            (drop1): Dropout(p=0.0, inplace=False)\n            (norm): Identity()\n            (fc2): Linear(in_features=1536, out_features=384, bias=True)\n            (drop2): Dropout(p=0.0, inplace=False)\n          )\n          (ls2): Identity()\n          (drop_path2): Identity()\n        )\n        (4): Block(\n          (norm1): LayerNorm((384,), eps=1e-06, elementwise_affine=True)\n          (attn): Attention(\n            (qkv): Linear(in_features=384, out_features=1152, bias=True)\n            (q_norm): Identity()\n            (k_norm): Identity()\n            (attn_drop): Dropout(p=0.0, inplace=False)\n            (norm): Identity()\n            (proj): Linear(in_features=384, out_features=384, bias=True)\n            (proj_drop): Dropout(p=0.0, inplace=False)\n          )\n          (ls1): Identity()\n          (drop_path1): Identity()\n          (norm2): LayerNorm((384,), eps=1e-06, elementwise_affine=True)\n          (mlp): Mlp(\n            (fc1): Linear(in_features=384, out_features=1536, bias=True)\n            (act): GELU(approximate='none')\n            (drop1): Dropout(p=0.0, inplace=False)\n            (norm): Identity()\n            (fc2): Linear(in_features=1536, out_features=384, bias=True)\n            (drop2): Dropout(p=0.0, inplace=False)\n          )\n          (ls2): Identity()\n          (drop_path2): Identity()\n        )\n        (5): Block(\n          (norm1): LayerNorm((384,), eps=1e-06, elementwise_affine=True)\n          (attn): Attention(\n            (qkv): Linear(in_features=384, out_features=1152, bias=True)\n            (q_norm): Identity()\n            (k_norm): Identity()\n            (attn_drop): Dropout(p=0.0, inplace=False)\n            (norm): Identity()\n            (proj): Linear(in_features=384, out_features=384, bias=True)\n            (proj_drop): Dropout(p=0.0, inplace=False)\n          )\n          (ls1): Identity()\n          (drop_path1): Identity()\n          (norm2): LayerNorm((384,), eps=1e-06, elementwise_affine=True)\n          (mlp): Mlp(\n            (fc1): Linear(in_features=384, out_features=1536, bias=True)\n            (act): GELU(approximate='none')\n            (drop1): Dropout(p=0.0, inplace=False)\n            (norm): Identity()\n            (fc2): Linear(in_features=1536, out_features=384, bias=True)\n            (drop2): Dropout(p=0.0, inplace=False)\n          )\n          (ls2): Identity()\n          (drop_path2): Identity()\n        )\n        (6): Block(\n          (norm1): LayerNorm((384,), eps=1e-06, elementwise_affine=True)\n          (attn): Attention(\n            (qkv): Linear(in_features=384, out_features=1152, bias=True)\n            (q_norm): Identity()\n            (k_norm): Identity()\n            (attn_drop): Dropout(p=0.0, inplace=False)\n            (norm): Identity()\n            (proj): Linear(in_features=384, out_features=384, bias=True)\n            (proj_drop): Dropout(p=0.0, inplace=False)\n          )\n          (ls1): Identity()\n          (drop_path1): Identity()\n          (norm2): LayerNorm((384,), eps=1e-06, elementwise_affine=True)\n          (mlp): Mlp(\n            (fc1): Linear(in_features=384, out_features=1536, bias=True)\n            (act): GELU(approximate='none')\n            (drop1): Dropout(p=0.0, inplace=False)\n            (norm): Identity()\n            (fc2): Linear(in_features=1536, out_features=384, bias=True)\n            (drop2): Dropout(p=0.0, inplace=False)\n          )\n          (ls2): Identity()\n          (drop_path2): Identity()\n        )\n        (7): Block(\n          (norm1): LayerNorm((384,), eps=1e-06, elementwise_affine=True)\n          (attn): Attention(\n            (qkv): Linear(in_features=384, out_features=1152, bias=True)\n            (q_norm): Identity()\n            (k_norm): Identity()\n            (attn_drop): Dropout(p=0.0, inplace=False)\n            (norm): Identity()\n            (proj): Linear(in_features=384, out_features=384, bias=True)\n            (proj_drop): Dropout(p=0.0, inplace=False)\n          )\n          (ls1): Identity()\n          (drop_path1): Identity()\n          (norm2): LayerNorm((384,), eps=1e-06, elementwise_affine=True)\n          (mlp): Mlp(\n            (fc1): Linear(in_features=384, out_features=1536, bias=True)\n            (act): GELU(approximate='none')\n            (drop1): Dropout(p=0.0, inplace=False)\n            (norm): Identity()\n            (fc2): Linear(in_features=1536, out_features=384, bias=True)\n            (drop2): Dropout(p=0.0, inplace=False)\n          )\n          (ls2): Identity()\n          (drop_path2): Identity()\n        )\n        (8): Block(\n          (norm1): LayerNorm((384,), eps=1e-06, elementwise_affine=True)\n          (attn): Attention(\n            (qkv): Linear(in_features=384, out_features=1152, bias=True)\n            (q_norm): Identity()\n            (k_norm): Identity()\n            (attn_drop): Dropout(p=0.0, inplace=False)\n            (norm): Identity()\n            (proj): Linear(in_features=384, out_features=384, bias=True)\n            (proj_drop): Dropout(p=0.0, inplace=False)\n          )\n          (ls1): Identity()\n          (drop_path1): Identity()\n          (norm2): LayerNorm((384,), eps=1e-06, elementwise_affine=True)\n          (mlp): Mlp(\n            (fc1): Linear(in_features=384, out_features=1536, bias=True)\n            (act): GELU(approximate='none')\n            (drop1): Dropout(p=0.0, inplace=False)\n            (norm): Identity()\n            (fc2): Linear(in_features=1536, out_features=384, bias=True)\n            (drop2): Dropout(p=0.0, inplace=False)\n          )\n          (ls2): Identity()\n          (drop_path2): Identity()\n        )\n        (9): Block(\n          (norm1): LayerNorm((384,), eps=1e-06, elementwise_affine=True)\n          (attn): Attention(\n            (qkv): Linear(in_features=384, out_features=1152, bias=True)\n            (q_norm): Identity()\n            (k_norm): Identity()\n            (attn_drop): Dropout(p=0.0, inplace=False)\n            (norm): Identity()\n            (proj): Linear(in_features=384, out_features=384, bias=True)\n            (proj_drop): Dropout(p=0.0, inplace=False)\n          )\n          (ls1): Identity()\n          (drop_path1): Identity()\n          (norm2): LayerNorm((384,), eps=1e-06, elementwise_affine=True)\n          (mlp): Mlp(\n            (fc1): Linear(in_features=384, out_features=1536, bias=True)\n            (act): GELU(approximate='none')\n            (drop1): Dropout(p=0.0, inplace=False)\n            (norm): Identity()\n            (fc2): Linear(in_features=1536, out_features=384, bias=True)\n            (drop2): Dropout(p=0.0, inplace=False)\n          )\n          (ls2): Identity()\n          (drop_path2): Identity()\n        )\n        (10): Block(\n          (norm1): LayerNorm((384,), eps=1e-06, elementwise_affine=True)\n          (attn): Attention(\n            (qkv): Linear(in_features=384, out_features=1152, bias=True)\n            (q_norm): Identity()\n            (k_norm): Identity()\n            (attn_drop): Dropout(p=0.0, inplace=False)\n            (norm): Identity()\n            (proj): Linear(in_features=384, out_features=384, bias=True)\n            (proj_drop): Dropout(p=0.0, inplace=False)\n          )\n          (ls1): Identity()\n          (drop_path1): Identity()\n          (norm2): LayerNorm((384,), eps=1e-06, elementwise_affine=True)\n          (mlp): Mlp(\n            (fc1): Linear(in_features=384, out_features=1536, bias=True)\n            (act): GELU(approximate='none')\n            (drop1): Dropout(p=0.0, inplace=False)\n            (norm): Identity()\n            (fc2): Linear(in_features=1536, out_features=384, bias=True)\n            (drop2): Dropout(p=0.0, inplace=False)\n          )\n          (ls2): Identity()\n          (drop_path2): Identity()\n        )\n        (11): Block(\n          (norm1): LayerNorm((384,), eps=1e-06, elementwise_affine=True)\n          (attn): Attention(\n            (qkv): Linear(in_features=384, out_features=1152, bias=True)\n            (q_norm): Identity()\n            (k_norm): Identity()\n            (attn_drop): Dropout(p=0.0, inplace=False)\n            (norm): Identity()\n            (proj): Linear(in_features=384, out_features=384, bias=True)\n            (proj_drop): Dropout(p=0.0, inplace=False)\n          )\n          (ls1): Identity()\n          (drop_path1): Identity()\n          (norm2): LayerNorm((384,), eps=1e-06, elementwise_affine=True)\n          (mlp): Mlp(\n            (fc1): Linear(in_features=384, out_features=1536, bias=True)\n            (act): GELU(approximate='none')\n            (drop1): Dropout(p=0.0, inplace=False)\n            (norm): Identity()\n            (fc2): Linear(in_features=1536, out_features=384, bias=True)\n            (drop2): Dropout(p=0.0, inplace=False)\n          )\n          (ls2): Identity()\n          (drop_path2): Identity()\n        )\n      )\n      (norm): LayerNorm((384,), eps=1e-06, elementwise_affine=True)\n      (fc_norm): Identity()\n      (head_drop): Dropout(p=0.0, inplace=False)\n      (head): Identity()\n    )\n    (resolution_projections): ModuleList(\n      (0-2): 3 x Sequential(\n        (0): Linear(in_features=384, out_features=384, bias=True)\n        (1): LayerNorm((384,), eps=1e-05, elementwise_affine=True)\n        (2): GELU(approximate='none')\n      )\n    )\n    (fusion): Sequential(\n      (0): Linear(in_features=1152, out_features=384, bias=True)\n      (1): LayerNorm((384,), eps=1e-05, elementwise_affine=True)\n      (2): GELU(approximate='none')\n    )\n  )\n  (visual_proj): Sequential(\n    (0): Linear(in_features=384, out_features=384, bias=True)\n    (1): LayerNorm((384,), eps=1e-05, elementwise_affine=True)\n    (2): GELU(approximate='none')\n    (3): Dropout(p=0.1, inplace=False)\n  )\n  (graph_weight_generator): Sequential(\n    (0): Linear(in_features=384, out_features=192, bias=True)\n    (1): ReLU()\n    (2): Linear(in_features=192, out_features=48, bias=True)\n  )\n  (graph_layers): ModuleList(\n    (0-1): 2 x SparseTopKAttention(\n      (q_proj): Linear(in_features=384, out_features=384, bias=True)\n      (k_proj): Linear(in_features=384, out_features=384, bias=True)\n      (v_proj): Linear(in_features=384, out_features=384, bias=True)\n      (out_proj): Linear(in_features=384, out_features=384, bias=True)\n      (dropout): Dropout(p=0.1, inplace=False)\n    )\n  )\n  (graph_norms): ModuleList(\n    (0-1): 2 x LayerNorm((384,), eps=1e-05, elementwise_affine=True)\n  )\n  (cross_attn): SparseTopKAttention(\n    (q_proj): Linear(in_features=384, out_features=384, bias=True)\n    (k_proj): Linear(in_features=384, out_features=384, bias=True)\n    (v_proj): Linear(in_features=384, out_features=384, bias=True)\n    (out_proj): Linear(in_features=384, out_features=384, bias=True)\n    (dropout): Dropout(p=0.1, inplace=False)\n  )\n  (cross_norm): LayerNorm((384,), eps=1e-05, elementwise_affine=True)\n  (classifier): Sequential(\n    (0): Linear(in_features=768, out_features=256, bias=True)\n    (1): LayerNorm((256,), eps=1e-05, elementwise_affine=True)\n    (2): GELU(approximate='none')\n    (3): Dropout(p=0.2, inplace=False)\n    (4): Linear(in_features=256, out_features=48, bias=True)\n  )\n)",
      "layer_types_summary": {
        "disease_embeddings": 18432,
        "visual_encoder": 22555008,
        "visual_proj": 148608,
        "graph_weight_generator": 83184,
        "graph_layers": 1182720,
        "graph_norms": 1536,
        "cross_attn": 591360,
        "cross_norm": 768,
        "classifier": 209712
      },
      "total_parameters": 24791328
…
